…
797088/800000 [============================>.] - ETA: 0s - loss: 0.7284 - categorical_accuracy: 0.6732
798208/800000 [============================>.] - ETA: 0s - loss: 0.7284 - categorical_accuracy: 0.6731
799360/800000 [============================>.] - ETA: 0s - loss: 0.7284 - categorical_accuracy: 0.6731
800000/800000 [==============================] - 36s 45us/sample - loss: 0.7285 - categorical_accuracy: 0.6731
 categorical_accuracy 0.673086
_________________________________________________________________
Layer (type)                 Output Shape              Param #   
=================================================================
input_1 (InputLayer)         (None, 2, 100, 1)         0         
_________________________________________________________________
conv2d (Conv2D)              (None, 1, 97, 64)         576       
_________________________________________________________________
conv2d_1 (Conv2D)            (None, 1, 94, 16)         4112      
_________________________________________________________________
flatten (Flatten)            (None, 1504)              0         
_________________________________________________________________
dense (Dense)                (None, 64)                96320     
_________________________________________________________________
dense_1 (Dense)              (None, 16)                1040      
_________________________________________________________________
dense_2 (Dense)              (None, 8)                 136       
=================================================================
Total params: 102,184
Trainable params: 102,184
Non-trainable params: 0
_________________________________________________________________

Process finished with exit code 0
